…
   layers.MaxPooling2D(2, 2),\n \n    layers.Flatten(),\n    layers.Dense(256, activation='relu'),\n    layers.BatchNormalization(),\n    layers.Dense(128, activation='relu'),\n    layers.Dropout(0.3),\n    layers.BatchNormalization(),\n    layers.Dense(3, activation='softmax')\n])\n\n\nmodel.summary()\n\nModel: \"sequential\"\n┏━━━━━━━━━━━━━━━━━━━━━━━━━━━━━━━━━┳━━━━━━━━━━━━━━━━━━━━━━━━┳━━━━━━━━━━━━━━━┓\n┃ Layer (type)                    ┃ Output Shape           ┃       Param # ┃\n┡━━━━━━━━━━━━━━━━━━━━━━━━━━━━━━━━━╇━━━━━━━━━━━━━━━━━━━━━━━━╇━━━━━━━━━━━━━━━┩\n│ conv2d (Conv2D)                 │ (None, 256, 256, 32)   │         2,432 │\n├─────────────────────────────────┼────────────────────────┼───────────────┤\n│ max_pooling2d (MaxPooling2D)    │ (None, 128, 128, 32)   │             0 │\n├─────────────────────────────────┼────────────────────────┼───────────────┤\n│ conv2d_1 (Conv2D)               │ (None, 128, 128, 64)   │        18,496 │\n├─────────────────────────────────┼────────────────────────┼───────────────┤\n│ max_pooling2d_1 (MaxPooling2D)  │ (None, 64, 64, 64)     │             0 │\n├─────────────────────────────────┼────────────────────────┼───────────────┤\n│ conv2d_2 (Conv2D)               │ (None, 64, 64, 128)    │        73,856 │\n├─────────────────────────────────┼────────────────────────┼───────────────┤\n│ max_pooling2d_2 (MaxPooling2D)  │ (None, 32, 32, 128)    │             0 │\n├─────────────────────────────────┼────────────────────────┼───────────────┤\n│ flatten (Flatten)               │ (None, 131072)         │             0 │\n├─────────────────────────────────┼────────────────────────┼───────────────┤\n│ dense (Dense)                   │ (None, 256)            │    33,554,688 │\n├─────────────────────────────────┼────────────────────────┼───────────────┤\n│ batch_normalization             │ (None, 256)            │         1,024 │\n│ (BatchNormalization)            │                        │               │\n├─────────────────────────────────┼────────────────────────┼───────────────┤\n│ dense_1 (Dense)                 │ (None, 128)            │        32,896 │\n├─────────────────────────────────┼────────────────────────┼───────────────┤\n│ dropout (Dropout)               │ (None, 128)            │             0 │\n├─────────────────────────────────┼────────────────────────┼───────────────┤\n│ batch_normalization_1           │ (None, 128)            │           512 │\n│ (BatchNormalization)            │                        │               │\n├─────────────────────────────────┼────────────────────────┼───────────────┤\n│ dense_2 (Dense)                 │ (None, 3)              │           387 │\n└─────────────────────────────────┴────────────────────────┴───────────────┘\n Total params: 33,684,291 (128.50 MB)\n Trainable params: 33,683,523 (128.49 MB)\n Non-trainable params: 768 (3.00 KB)\n\n\n\nkeras.utils.plot_model(\n    model,\n    show_shapes = True,\n    show_dtype = True,\n    show_layer_activations = True\n)\n\n\n\n\n\nmodel.compile(\n    optimizer = 'adam',\n    loss = 'categ
…
